model.tflite (tflite, 21784 bytes, 8 tensors)

sequential_12/normalization_6/truediv;sequential_12/normalization_6/Sqrt f4 [1, 2]
0	0x3de52eac	0.111905426
1	0x3f9d1312	1.2271445

Const_1 f4 [1, 2]
0	0x416fa491	14.977677
1	0x3f7dc303	0.9912569

sequential_12/dense_30/BiasAdd/ReadVariableOp f4 [64]
0	0xc0a81465	-5.2524896
1	0xc08b4049	-4.3515973
2	0xbfff5d47	-1.9950341
3	0xc0787758	-3.8822842
4	0xbfe8ef6f	-1.8198069
5	0xbff5d48f	-1.9205493
6	0xc066c69d	-3.6058724
7	0xc04aee7b	-3.1708057
8	0xc01a7a14	-2.413701
9	0xbf856822	-1.0422404
10	0xbfef2c98	-1.8685484
11	0xbf51fa46	-0.8202251
12	0xbf6e66b4	-0.9312546
13	0xbfc7ffce	-1.562494
14	0xbf70f444	-0.9412272
15	0xbf76e678	-0.9644542
16	0xc033bacc	-2.8082762
17	0xc07399e6	-3.8062682
18	0xbf3ff72e	-0.7498654
19	0xbf787669	-0.9705568
20	0xc0387ad9	-2.882498
21	0xc01c7de3	-2.4451835
22	0xbf914211	-1.1348287
23	0xbf56f16a	-0.8396212
24	0xc01eae36	-2.479383
25	0xc02becb5	-2.6863225
26	0xc01e2a56	-2.471334
27	0xc048735a	-3.1320405
28	0xbf095c9e	-0.5365695
29	0xbf61ed4f	-0.8825273
30	0xc0272ec2	-2.6122289
31	0xc02dbd42	-2.7146764
32	0xc03d6836	-2.9594855
33	0xc01af12f	-2.4209707
34	0xbf44d13e	-0.7688178
35	0xbf8b14ca	-1.0865719
36	0xbf0c7cdb	-0.54878014
37	0xbf9f1528	-1.2428331
38	0xc0678c32	-3.6179318
39	0xc059fa75	-3.4059117
40	0xbf3e9595	-0.74446994
41	0xc04a5589	-3.1614707
42	0xc06c17bb	-3.6889484
43	0xbf45f2d1	-0.77323633
44	0xc0228b15	-2.539739
45	0xc078dc0f	-3.8884313
46	0xc084c6fb	-4.1492896
47	0xc0246492	-2.5686383
48	0xc02d2468	-2.705347
49	0xc006efa1	-2.1083758
50	0xbf539fcb	-0.826657
51	0xc03ac06a	-2.917994
52	0xc05fb4a0	-3.4953995
53	0xbfffcaef	-1.9983805
54	0xbf530fe0	-0.824461
55	0xc0245ddd	-2.568229
56	0xbf690503	-0.9102327
57	0xbf589b6d	-0.8461216
58	0xbf6f4689	-0.93467003
59	0xc02f96ac	-2.7435713
60	0xbf53f1c9	-0.8279081
61	0xc066e33b	-3.607619
62	0xbf70f050	-0.9411669
63	0xbf8d5a25	-1.1043135

sequential_12/dense_31/BiasAdd/ReadVariableOp f4 [64]
0	0xbf52e8de	-0.8238658
1	0xc0c23210	-6.068611
2	0xbf3dd318	-0.7415023
3	0xbf19bbbb	-0.6005208
4	0xbff2c055	-1.8964945
5	0xbf999ee1	-1.2001611
6	0xbf1f9d34	-0.6234925
7	0xbf19ba83	-0.6005022
8	0xbf2849c3	-0.6573755
9	0xbf2a6d9d	-0.66573507
10	0xbf19bbcf	-0.600522
11	0xbf1b0176	-0.60549104
12	0xbf3dbac6	-0.7411312
13	0x403b2ac8	2.9244862
14	0xbf5317fe	-0.82458484
15	0xbf19af07	-0.60032696
16	0xbf838a5b	-1.0276598
17	0xbf19b95d	-0.60048467
18	0xbf6b1f62	-0.9184476
19	0xbfa0f800	-1.2575684
20	0xbeeaa4d2	-0.45828873
21	0xbe722818	-0.23648107
22	0xc0de9e52	-6.956826
23	0xbf977eb7	-1.1835545
24	0xbfee2124	-1.8603864
25	0xbedde931	-0.43341973
26	0xbf0fc0bf	-0.5615348
27	0xc0cec0a2	-6.4610147
28	0xbf19ba5c	-0.60049987
29	0xbf40741c	-0.7517717
30	0xbf19b5b8	-0.60042906
31	0xbed54546	-0.41654414
32	0xbf19b4c2	-0.6004144
33	0xbe35e2b5	-0.17762263
34	0xbedc9bb0	-0.4308753
35	0xc083c596	-4.1178694
36	0xbf08381e	-0.5321063
37	0xc0437b1f	-3.0543897
38	0xbf12f2b6	-0.574016
39	0xbf1fbe59	-0.6239982
40	0xbf2ad976	-0.6673807
41	0xbf0ab428	-0.54181147
42	0xbea057f3	-0.313171
43	0xbeb6f33c	-0.35732448
44	0xbf19bc5d	-0.60053045
45	0xc0b4ca17	-5.649669
46	0xbed3f44c	-0.4139732
47	0xbfb3a7c5	-1.4035574
48	0xbf2ad511	-0.66731364
49	0xbf8c4934	-1.095984
50	0xc08d9b49	-4.4252057
51	0x3f989bee	1.1922586
52	0xbed31400	-0.41226196
53	0xbff51d3d	-1.9149548
54	0xbf08de44	-0.5346415
55	0xbf19bbe8	-0.6005235
56	0xbf19b792	-0.6004573
57	0xbf502f29	-0.8132196
58	0xbed72da3	-0.42027006
59	0xbef2b91b	-0.4740685
60	0xc0a76964	-5.231615
61	0xbf4e72a5	-0.80643684
62	0xbf2d025e	-0.6758174
63	0xbeda1772	-0.42596012

sequential_12/dense_32/BiasAdd/ReadVariableOp f4 [6]
0	0xc205a110	-33.407288
1	0x416fea27	14.994666
2	0x41a5824c	20.688622
3	0x41547abc	13.279964
4	0x402d11fc	2.7042227
5	0xc007a594	-2.119481

sequential_12/dense_30/MatMul f4 [64, 2]
0	0xbe354b49	-0.177045
1	0x402005a3	2.500344
2	0xc0154c78	-2.3327923
3	0xbe4fabdc	-0.20280403
4	0xbec646c9	-0.3872588
5	0xbed27fe6	-0.41113204
6	0x40881e54	4.253702
7	0x3f2ebb5e	0.6825465
8	0x41493740	12.575989
9	0x37899c04	1.6404323e-05
10	0x4029669e	2.6468883
11	0x3e9b58a7	0.30341074
12	0xbff377c1	-1.9020921
13	0xbe11d562	-0.14241555
14	0xbf860c26	-1.0472457
15	0xbf21edd5	-0.6325353
16	0xbf49e110	-0.78859043
17	0xbf3130d7	-0.6921515
18	0x3eabd61a	0.33561784
19	0xbe670c3f	-0.22563265
20	0x3fb00f64	1.3754697
21	0xbf2ec26c	-0.68265414
22	0x3e4e7e33	0.20165329
23	0xbeb2fd6e	-0.34958977
24	0x3e6abbd0	0.22923207
25	0xbe8ca873	-0.27472267
26	0xbf453380	-0.7703171
27	0x3d70f1ac	0.058824226
28	0x3e8547bd	0.26031294
29	0xbe86f556	-0.2635905
30	0xbd989966	-0.074511334
31	0xbdd96b69	-0.1061619
32	0x409d5932	4.917138
33	0xbdffc1bd	-0.124881245
34	0x40102032	2.251965
35	0xbe014e31	-0.12627484
36	0xbe118ba3	-0.14213423
37	0xbdcea901	-0.10090829
38	0x3e479573	0.19490604
39	0xbe382817	-0.17984043
40	0x40314de6	2.7703795
41	0x3f0e9e0d	0.55709916
42	0xbc84305a	-0.016136337
43	0x3e3e8e0b	0.18608873
44	0xbeb39e15	-0.35081545
45	0x3d54892c	0.05188863
46	0xbd1e3908	-0.038628608
47	0x3f0f9b79	0.5609661
48	0xbf755c28	-0.95843744
49	0x3ebb7e98	0.3662002
50	0xbf7bea62	-0.98404515
51	0x3e027a55	0.12741978
52	0x3e3dbe2f	0.1852958
53	0x3c6a94e5	0.014317726
54	0xbfb85059	-1.439952
55	0x3ebf7d08	0.3740008
56	0xbd12c3d7	-0.0358313
57	0x3e94fb31	0.29097894
58	0xbe8235f1	-0.2543178
59	0xbe00e66e	-0.12587902
60	0xbdf7392e	-0.12071453
61	0x3def1b31	0.11675108
62	0x3f61f895	0.8826993
63	0xbee9d2be	-0.45668596
64	0x3f4433f2	0.7664176
65	0x3f68d6df	0.9095287
66	0xbf7fc5ff	-0.99911493
67	0xbefe9f36	-0.49730843
68	0xbda0a320	-0.078436136
69	0xbe9d430d	-0.30715218
70	0xbee2c3da	-0.44290048
71	0xbdb36384	-0.087592155
72	0xbd8e7495	-0.0695583
73	0x3e0db7e9	0.13839687
74	0xbe5ba621	-0.21450092
75	0xbdccd16a	-0.1000088
76	0x4015bf84	2.3398142
77	0xbe9f7a6c	-0.31148088
78	0xbf5db926	-0.8661064
79	0xbf1fb1b7	-0.62380546
80	0x3e8f3b7c	0.2797507
81	0xbc69a1fc	-0.0142598115
82	0x3f505fa4	0.81395936
83	0xbf3b34bb	-0.73127335
84	0xbffb1bd3	-1.9617866
85	0xbe73581b	-0.23764078
86	0x3ccecbcb	0.02524366
87	0x3e11841e	0.14210555
88	0xbfa78d65	-1.3090025
89	0x3dd62eb7	0.10458129
90	0x403e473b	2.9730976
91	0x3eb83d75	0.35984388
92	0xbe38bbcf	-0.18040393
93	0x3f0003f2	0.5000602
94	0x3f3cc990	0.7374506
95	0xbfd0c2bd	-1.630943
96	0x40150088	2.3281574
97	0xbd973b4f	-0.07384359
98	0xc1113b4c	-9.076977
99	0x3cc30528	0.02380617
100	0xbdea0863	-0.11427381
101	0x3dc7125b	0.09720298
102	0xbf6757f1	-0.9036856
103	0xbe9a0934	-0.30085146
104	0x3ea3d460	0.31997967
105	0x3f0cfd2f	0.5507383
106	0x3f29c36a	0.66313803
107	0xbf8fb97d	-1.1228482
108	0x3cd26d28	0.025686815
109	0xbef0627e	-0.46950144
110	0xbc1195f9	-0.008885854
111	0x3fc32450	1.5245457
112	0xbe93d776	-0.2887532
113	0xbc4215e8	-0.011846043
114	0x3dc3049d	0.09522364
115	0x3f0170fa	0.50563014
116	0xbccd0736	-0.025027853
117	0xbeb39c73	-0.350803
118	0xbf3b732e	-0.73222625
119	0xbf563e0e	-0.8368844
120	0x3eb8214b	0.359629
121	0xbe9575d4	-0.29191458
122	0xbfb46169	-1.4092227
123	0xbf07faca	-0.5311705
124	0x3d3c5076	0.04597517
125	0xbed35e42	-0.4128285
126	0x3e35cb48	0.17753327
127	0xbdf2b525	-0.11850957

sequential_12/dense_31/MatMul f4 [64, 64]
0	0xbf3c7617	-0.7361769
1	0xbf23f0c0	-0.6403923
2	0xbd524955	-0.051339466
3	0xbe32a9ee	-0.17447636
4	0xbead25ca	-0.33817893
5	0xbeb07399	-0.34463194
6	0xbed135dd	-0.40861407
7	0xbfca2984	-1.579392
8	0xbed22428	-0.4104321
9	0xbf0cfaf5	-0.5507043
10	0xbec115bd	-0.37711897
11	0x3ec8104b	0.3907493
12	0x3e081b50	0.13291669
13	0xbee1edcb	-0.44126734
14	0x3ed4c7e3	0.4155875
15	0x3f862432	1.0479796
16	0xbfa48984	-1.2854466
17	0x3edc25fb	0.42997727
18	0xbf566536	-0.83748186
19	0xbf1dbe30	-0.6161833
20	0xbb64fb64	-0.003493988
21	0xbf0814c5	-0.5315669
22	0xbf5d5371	-0.86455446
23	0x3eafe969	0.34357765
24	0xbf6b914b	-0.92018574
25	0xbf1b5a14	-0.60684323
26	0xbf375a59	-0.71622235
27	0xbf2cfe19	-0.6757522
28	0xbf090433	-0.5352203
29	0xbf391b81	-0.7230759
30	0xbf2579ec	-0.64639163
31	0xbd1c98da	-0.038231708
32	0x3ee9887b	0.4561194
33	0xbe4dcb01	-0.20096971
34	0xbe815a15	-0.2526404
35	0xbf1706c9	-0.5899473
36	0xbf561a09	-0.83633476
37	0xbe704381	-0.2346325
38	0xbf5eea8a	-0.8707663
39	0xbf3c33ce	-0.7351655
40	0x3f3d9580	0.74056244
41	0xbea077fd	-0.31341544
42	0x3efe348b	0.49649462
43	0x3f17d16b	0.5930392
44	0xbf4ea205	-0.8071597
45	0xbf8ecd0f	-1.1156329
46	0x3f0c8a4c	0.54898524
47	0xbe9e96ef	-0.30974528
48	0x3ef3baca	0.47603446
49	0xbf482ace	-0.78190315
50	0xbf31d985	-0.69472533
51	0x3f355f58	0.7084861
52	0xbf2ad6c1	-0.6673394
53	0xbee58441	-0.44827464
54	0xbef19e12	-0.4719091
55	0x3e55f896	0.2089561
56	0xbeddfe50	-0.43358088
57	0x3ed80874	0.4219395
58	0x3ebf255d	0.37333193
59	0xbedb0366	-0.4277603
60	0xbf129574	-0.572593
61	0xbf59d968	-0.8509736
62	0x3f324ccc	0.6964843
63	0x3f363954	0.71181226
64	0x3ff41b28	1.9070787
65	0xbf2297d9	-0.6351295
66	0x4009c7bc	2.1528158
67	0x401a353e	2.4094996
68	0x3e842104	0.2580644
69	0x3aebb1c7	0.0017982059
70	0xbf3d56f8	-0.7396083
71	0xc050914e	-3.2588687
72	0x3f0776f8	0.52915907
73	0x3d4079d5	0.046991188
74	0x400d6795	2.2094471
75	0x3f189ec0	0.59617233
76	0x3f268253	0.6504261
77	0xbed3f60d	-0.4139866
78	0xbee1e45e	-0.44119543
79	0x3ee15cbe	0.4401607
80	0x3fe0b9fa	1.7556756
81	0x3f4628e6	0.77406156
82	0xbf4fcabb	-0.8116872
83	0x3e8145aa	0.25248462
84	0x403413f1	2.8137171
85	0x402d8340	2.7111359
86	0xbf830083	-1.0234531
87	0xbf03645a	-0.51325
88	0xbd89f0f0	-0.06735408
89	0xbefdddc3	-0.49583253
90	0x3e940394	0.2890898
91	0xbf395f3a	-0.7241093
92	0xbd8a46c8	-0.06751782
93	0xbeae71a0	-0.34071064
94	0xbc8713a0	-0.01648885
95	0x401e4c2a	2.4733987
96	0xc01512cd	-2.3292725
97	0xbe83598e	-0.25654262
98	0xbe15a321	-0.1461301
99	0xbe93e4d2	-0.28885514
100	0xbe6c9513	-0.23103742
101	0xbd3f781f	-0.046745416
102	0x3ea2b851	0.31781247
103	0x4013d5ca	2.3099236
104	0xbe94e31f	-0.2907953
105	0x3feee0a1	1.8662301
106	0x3f31596c	0.6927707
107	0x3f843372	1.03282
108	0xbe947db2	-0.29002148
109	0x40202671	2.5023463
110	0xbf20615d	-0.62648565
111	0x3fd2a9e0	1.6458092
112	0xbf446235	-0.7671235
113	0xbef2f02f	-0.4744887
114	0x3d7d57a5	0.061851162
115	0x3f681e35	0.9067109
116	0x3fbf05a5	1.4923598
117	0x400710bb	2.1103961
118	0x3f0dac7b	0.5534131
119	0x4025c708	2.590273
120	0x3cd1b405	0.025598535
121	0xbee1f2fe	-0.441307
122	0x3f31a494	0.6939175
123	0xbee14110	-0.4399495
124	0x402d6df3	2.7098358
125	0x3e54b2fd	0.20771404
126	0x3f56a564	0.83846116
127	0xbf29adc6	-0.6628078
128	0xbf0568bc	-0.52112937
129	0xbf47af8e	-0.7800225
130	0xbf329c34	-0.697696
131	0xbf16d78b	-0.5892264
132	0xbe9fc768	-0.31206822
133	0xbf568668	-0.8379884
134	0xbf00a4cb	-0.50251454
135	0xbe215381	-0.1575451
136	0xbf6a8290	-0.9160547
137	0xbf5db9da	-0.8661171
138	0xbe81b9a7	-0.25336954
139	0xbecd5533	-0.40104064
140	0xbf0d976f	-0.55309194
141	0xbf377f8f	-0.71679014
142	0x3f274bab	0.65349835
143	0xbf48cb6c	-0.784354
144	0xbf5f279a	-0.871698
145	0xbeeb3626	-0.4593975
146	0xbf1e58e7	-0.61854404
147	0xbf202b9c	-0.6256654
148	0xbee36835	-0.4441544
149	0xbf479e92	-0.77976334
150	0xbf2d79f8	-0.67764235
151	0xbcd7a7cc	-0.026325129
152	0xbed4f536	-0.4159333
153	0xbf4a746d	-0.790839
154	0xbf0fa737	-0.56114525
155	0xbf17f090	-0.59351444
156	0xbefd2f03	-0.4944993
157	0xbef04547	-0.46927854
158	0xbf294ce1	-0.6613293
159	0xbe7e7216	-0.24848208
160	0xbf3167eb	-0.6929919
161	0xbf4065e8	-0.75155497
162	0xbf10c5b0	-0.5655165
163	0xbf32f531	-0.6990538
164	0xbf20ad69	-0.627646
165	0xbef94a0e	-0.48689312
166	0xbf1fadd3	-0.6237461
167	0x3f27c555	0.6553548
168	0xbefad63e	-0.4899158
169	0xbf46600e	-0.7749032
170	0xbf46063e	-0.77353275
171	0xbf05d407	-0.52276653
172	0xbf1d6013	-0.6147472
173	0xbf32d43c	-0.69855094
174	0xbefb3835	-0.4906632
175	0xbf267f38	-0.6503787
176	0xbf263786	-0.6492847
177	0xbf268299	-0.65043026
178	0xbf48297e	-0.7818831
179	0xbd9c6e57	-0.07638233
180	0xbf41bab3	-0.75675505
181	0xbeb88318	-0.36037517
182	0xbf097a74	-0.53702474
183	0xbf029842	-0.51013577
184	0xbed0529a	-0.4068802
185	0xbf046f1d	-0.51732045
186	0xbf22e2ba	-0.6362721
187	0xbf46ee01	-0.77706915
188	0xbf4658d9	-0.7747932
189	0xbf3d027c	-0.73831916
190	0xbf039d21	-0.51411635
191	0xbf0bd334	-0.54619145
192	0xbeeeb4e7	-0.46622393
193	0xbf35c360	-0.71001244
194	0xbf2d9390	-0.6780329
195	0xbf08e237	-0.53470176
196	0xbf35e90d	-0.7105873
197	0xbf2a42cf	-0.6650819
198	0xbf32a6fa	-0.69786036
199	0xbe9ae6d8	-0.30254245
200	0xbf4c0987	-0.7970204
201	0xbf078791	-0.5294123
202	0xbf18db9c	-0.597101
203	0xbf251b6c	-0.6449497
204	0xbeeb4252	-0.45949036
205	0xbf3b8a17	-0.73257583
206	0xbf04f050	-0.5192919
207	0xbf179687	-0.5921406
208	0xbec90a1b	-0.39265522
209	0xbf498870	-0.7872381
210	0xbf1cf02f	-0.6130399
211	0xbf0aa087	-0.54151195
212	0xbf3dc492	-0.7412807
213	0xbec62512	-0.38700157
214	0xbf4d6750	-0.8023577
215	0xbf154d45	-0.5832103
216	0xbf49a063	-0.78760356
217	0xbf390b71	-0.72283083
218	0xbf008644	-0.50204873
219	0xbf107c0c	-0.5643928
220	0xbf082c54	-0.5319264
221	0xbf45bbb9	-0.7723957
222	0xbf09d7b9	-0.5384479
223	0xbf42143b	-0.7581212
224	0xbeee504b	-0.46545634
225	0xbf27f24f	-0.6560411
226	0xbefe8dc7	-0.49717543
227	0xbec791e4	-0.38978493
228	0xbf39eb28	-0.72624445
229	0xbf3e872a	-0.74424994
230	0xbebdac96	-0.37045735
231	0xbe94f45d	-0.29092684
232	0xbf0aa99a	-0.5416504
233	0xbf1801d1	-0.5937777
234	0xbed47f06	-0.4150316
235	0xbeef2a8c	-0.46712148
236	0xbf1a28ad	-0.60218316
237	0xbed42805	-0.41436782
238	0xbf126d44	-0.57197976
239	0xbf38d72e	-0.7220334
240	0xbf10c95c	-0.5655725
241	0xbf250494	-0.6446011
242	0xbf10c467	-0.56549686
243	0xbeac4635	-0.33647314
244	0xbef76d2a	-0.48325473
245	0xbf26fe49	-0.6523176
246	0xbee8bc73	-0.45456275
247	0xbee9229b	-0.45534214
248	0xbf3f23e4	-0.7466414
249	0xbeecd0db	-0.46253094
250	0xbf1b89a0	-0.60756874
251	0xbf298e91	-0.66233164
252	0xbf0ddec9	-0.5541807
253	0xbf000a81	-0.5001603
254	0xbf234d84	-0.63790154
255	0xbf0e7e92	-0.5566188

sequential_12/dense_32/MatMul f4 [6, 64]
0	0x3e2841e7	0.1643139
1	0xbf53cce1	-0.82734495
2	0xbf638edd	-0.8888987
3	0xbec82109	-0.39087704
4	0xbf01661e	-0.50546443
5	0xbf685f26	-0.90770185
6	0xbf7556a8	-0.9583535
7	0xbf1551a1	-0.5832768
8	0x3f471613	0.7776806
9	0x3f03602f	0.5131864
10	0xbf4b5565	-0.79427177
11	0xbf0bc88b	-0.5460288
12	0xbee3195d	-0.44355288
13	0xbf9c8410	-1.2227802
14	0xbf075bf3	-0.5287468
15	0xbf524461	-0.8213559
16	0xbfff8653	-1.9962867
17	0xbeb4d3f7	-0.35317966
18	0x3debefb3	0.115203284
19	0xbf29a1c4	-0.6626246
20	0x3d973ae4	0.07384279
21	0x3f30f9e9	0.6913133
22	0xbf8d2a9f	-1.1028632
23	0x3d27ce86	0.04096844
24	0xbf5c4b30	-0.8605223
25	0x3f047323	0.51738185
26	0x3f0195b1	0.50619036
27	0x4008a083	2.1347969
28	0x3f4a0e90	0.7892847
29	0x3e328203	0.17432408
30	0xbf5034df	-0.81330675
31	0xbf6dfb66	-0.9296173
32	0xbd80b7cd	-0.06285057
33	0xbf04bf87	-0.5185475
34	0xbfab526d	-1.3384529
35	0x3f193e2b	0.59860486
36	0xbd271391	-0.040790144
37	0xbf4a3053	-0.78979987
38	0xbfaa38fd	-1.3298641
39	0xbf06e00a	-0.52685606
40	0x3eb5579e	0.3541841
41	0x3f02ee91	0.51145273
42	0xbe0b2f01	-0.1359215
43	0xc055747c	-3.3352346
44	0xbeb5911f	-0.3546228
45	0xbfa2e56c	-1.2726264
46	0x3d1b1996	0.037866198
47	0xbf99e1f9	-1.2022086
48	0x3f088f03	0.5334322
49	0xbf85ce0f	-1.0453509
50	0xbf11a775	-0.56896144
51	0xbf362f0c	-0.7116554
52	0xbf99019b	-1.1953615
53	0xbeece682	-0.46269614
54	0x3e9a6f99	0.30163267
55	0xbef69034	-0.48156893
56	0xbeaf3220	-0.3421793
57	0xbf146b27	-0.57976
58	0xbf48655e	-0.78279674
59	0x3e55fe49	0.20897783
60	0x3ec4388d	0.38324395
61	0x3f6ef199	0.933374
62	0xbd19bfde	-0.037536494
63	0x3e5bce2a	0.21465364
64	0xbeae952c	-0.34098184
65	0xbf0d51ba	-0.5520283
66	0xbe14d003	-0.14532475
67	0x3f046e13	0.5173046
68	0x3edf4183	0.4360467
69	0xbe923d0b	-0.28562197
70	0x3d8b59ac	0.06804213
71	0xbf1e2795	-0.6177915
72	0x3ed16ae0	0.40901852
73	0x3edd8322	0.4326411
74	0x3f046a76	0.51724946
75	0x3f010e82	0.5041276
76	0xbe815150	-0.2525735
77	0xc10a0077	-8.6251135
78	0xbed76130	-0.42066336
79	0x3ed48dd3	0.41514453
80	0xc0cf825a	-6.484662
81	0xbe9dc780	-0.3081627
82	0xbf990d8d	-1.195726
83	0x3eec1f80	0.46117783
84	0x3d9781b8	0.07397789
85	0xbe2bf70a	-0.16793457
86	0xbf02b04e	-0.5105027
87	0xbf89814c	-1.0742583
88	0xbfb51f98	-1.4150267
89	0x3e9313d5	0.28726068
90	0xbe9f805c	-0.31152618
91	0xbf321a62	-0.69571507
92	0x3f34cee8	0.70628214
93	0xbd876d72	-0.06612672
94	0xbf2a09b7	-0.66421074
95	0xbe40c001	-0.18823244
96	0xbe8db658	-0.2767818
97	0xbef0e601	-0.4705048
98	0xbf3aa1b4	-0.7290299
99	0xbe1a1250	-0.15046048
100	0xbf27deae	-0.6557416
101	0xbee181f1	-0.4404445
102	0xbea5546b	-0.32290968
103	0x3f094c4b	0.5363204
104	0x3ee8caa3	0.454671
105	0x3e5189f3	0.2046278
106	0x3eec1b21	0.46114448
107	0xbf9e6836	-1.2375553
108	0x3edcf4ba	0.43155462
109	0xbf87b520	-1.060215
110	0xbee3f9c1	-0.44526485
111	0xbf058bc2	-0.5216638
112	0xbe81c984	-0.25349057
113	0xbf23e8fa	-0.6402737
114	0x3ea373a2	0.31924158
115	0xc0db161d	-6.8464494
116	0xbf015239	-0.50516087
117	0x3f1a7d32	0.6034728
118	0xbef0fa54	-0.47065985
119	0x3ede4dc6	0.4341871
120	0x3f0766c5	0.5289119
121	0x3cb23fcc	0.021758936
122	0xbe9192d4	-0.28432333
123	0xbe1ab17f	-0.15106772
124	0xc0618469	-3.5237067
125	0x3e010d10	0.12602639
126	0xbedc26a4	-0.4299823
127	0x3c89393d	0.016750926
128	0x3ef7987f	0.48358533
129	0xbb68638e	-0.003545973
130	0xbeda48d5	-0.4263369
131	0xbf0cd9ab	-0.55019635
132	0x3f073791	0.5281916
133	0x3f80fa1e	1.007633
134	0x3b9d9f47	0.004810247
135	0xbed0d25c	-0.4078549
136	0xbf1c0917	-0.6095137
137	0xbe054dc6	-0.1301795
138	0xbed7bbac	-0.4213537
139	0xbf45c418	-0.7725234
140	0xbea2ca2f	-0.3179488
141	0xbd82e51e	-0.06391357
142	0x3e1b207b	0.15149109
143	0x3efa4848	0.4888327
144	0xc0ff1786	-7.9716215
145	0xbec67e66	-0.3876831
146	0xbf5e2215	-0.86770755
147	0xbf4174a3	-0.755686
148	0x3f0343a8	0.5127511
149	0x3f292312	0.6606914
150	0x3d6df275	0.058092553
151	0x3f8a7c0c	1.0819106
152	0xbf4e10f8	-0.8049464
153	0x3d37ded3	0.044890236
154	0x3f322652	0.6958972
155	0xc1553e35	-13.327687
156	0xbf2b7db2	-0.6698867
157	0x3ef5b42e	0.4798903
158	0xbf4f77ae	-0.8104199
159	0xbcacd488	-0.021097437
160	0xbeb37202	-0.3504792
161	0x3e1d6f30	0.15374446
162	0xbd8659a0	-0.06560063
163	0x3ea737ab	0.3265966
164	0x3fc23702	1.5173037
165	0xbfc62ebc	-1.5483012
166	0x3ee9166e	0.45524925
167	0xbee510bd	-0.44739333
168	0xbf1d72b4	-0.6150315
169	0x3deff0b6	0.11715834
170	0x3e8456ef	0.25847575
171	0x3f554420	0.83307076
172	0xbeb5d902	-0.35517126
173	0xbf2093f3	-0.6272575
174	0xbe791fe0	-0.24328566
175	0x3ed36509	0.4128802
176	0x3f373003	0.71557635
177	0xbfbad2d1	-1.4595586
178	0xbf84158e	-1.0319078
179	0xc09bcf75	-4.8690743
180	0x3e9d5abe	0.30733293
181	0xbf13e2c6	-0.57767904
182	0xbef1dd51	-0.47239164
183	0xbedc79a1	-0.43061545
184	0xbf3b0ca5	-0.7306617
185	0x3e2ce942	0.16885856
186	0x3f0834b6	0.5320543
187	0x3e65f22b	0.22455661
188	0xc096b1cb	-4.7092032
189	0x3ec9c8c3	0.39410982
190	0x3e08f36d	0.1337411
191	0xbf709c97	-0.9398894
192	0xbda4164b	-0.080120645
193	0xbff92d9e	-1.9467046
194	0x3e8aa085	0.27075592
195	0x3f03c104	0.51466393
196	0x3f0a0227	0.53909534
197	0x3dad9ca9	0.08477146
198	0x3ec85a88	0.3913157
199	0x3f18bb40	0.5966072
200	0xc0324765	-2.7856076
201	0xbfccd3da	-1.6002152
202	0xbf214725	-0.6299918
203	0x3f12c641	0.5733376
204	0xbe063508	-0.13106167
205	0x408d01da	4.406476
206	0xbe311f22	-0.17297032
207	0xbf61e841	-0.88245016
208	0xc09ba1b1	-4.8634877
209	0x3ead9731	0.33904412
210	0xbf3cdacd	-0.73771363
211	0x3f0c7098	0.54859304
212	0xbf00e737	-0.50352806
213	0xbe4fd21b	-0.20294993
214	0x406880c3	3.632859
215	0x3fb1f3a1	1.3902475
216	0x402f2988	2.7369099
217	0xbf540a2a	-0.8282801
218	0xbf2256e2	-0.6341382
219	0xc17f2955	-15.947591
220	0x3ea7c1dc	0.3276509
221	0xbf1c8766	-0.611441
222	0x3ee9fdf6	0.4570157
223	0x3e8a80ec	0.27051485
224	0xbe067c65	-0.1313339
225	0x3d2ed64c	0.04268484
226	0xbea8630c	-0.32888067
227	0xbe3e87ce	-0.18606493
228	0x3e7342da	0.2375597
229	0xc010fd7e	-2.265472
230	0x3ee62739	0.449518
231	0xbf177486	-0.59162176
232	0xbf4b329a	-0.79374087
233	0xbf8a2415	-1.0792261
234	0xbf4bf7e5	-0.7967513
235	0x3f8937ee	1.0720193
236	0xbf32fc7d	-0.69916517
237	0xbf9a8f83	-1.2075046
238	0xbe01eefc	-0.12688822
239	0xbf496543	-0.7867014
240	0xbec3eb74	-0.38265574
241	0xbeec2398	-0.46120906
242	0x3c2c6ead	0.010524434
243	0xbd9a6a6f	-0.07539832
244	0x3eed2dbd	0.46323958
245	0xbfbfeaad	-1.4993492
246	0xbf2489b6	-0.6427263
247	0x3f167aaa	0.5878092
248	0xbf50f275	-0.8161996
249	0x3f35964a	0.7093245
250	0xbf402df7	-0.75070137
251	0xbcd37bd4	-0.025815882
252	0xbfd1226c	-1.633863
253	0xbefb5d6b	-0.4909471
254	0x3de5e562	0.11225392
255	0xbe87cfcd	-0.26525727
